models/GCN_model_syn6_sim.pth (torch, 489476 bytes, 9 tensors)

weight f4 [10, 20]
0.010526715 -0.00068707805 -0.00028008717 -0.00019579173 -0.00084400474 -0.0006694466 -0.00046628172 -4.5816516e-05
-0.0002467347 -0.0004267477 -0.00039733245 -0.0022628286 -0.0020213814 -0.0013098653 -0.0002502064 -0.00041344814
-0.0076236143 -0.071341716 -0.00040540932 -0.000255932 0.059640147 -0.00068707805 -0.00028008717 -0.00019579173
-0.00084400474 -0.0006694466 -0.00046628172 -4.5816516e-05 -0.0002467347 -0.0004267477 -0.00039733245 -0.0022628286
-0.0020213814 -0.0013157433 -0.0002502064 -0.00041344814 -0.0076236143 -0.0051231575 -0.00040540932 -0.000255932
0.029077891 -0.00068707805 -0.00028008717 -0.00019579173 -0.00084400474 -0.0006694466 -0.00046628172 -4.5816516e-05
-0.0002467347 -0.0004267477 -0.00039733245 -0.0022628286 -0.0020213814 -0.0013182729 -0.0002502064 -0.00041344814
-0.0076236143 0.0015243745 -0.00040540932 -0.000255932 0.060287576 -0.00068707805 -0.00028008717 -0.00019579173
-0.00084400474 -0.0006694466 -0.00046628172 -4.5816516e-05 -0.0002467347 -0.0004267477 -0.00039733245 -0.0022628286
-0.0020213814 -0.0013202652 -0.0002502064 -0.00041344814 -0.0076236143 -0.05344484 -0.00040540932 -0.000255932
0.035903297 -0.00068707805 -0.00028008717 -0.00019579173 -0.00084400474 -0.0006694466 -0.00046628172 -4.5816516e-05
-0.0002467347 -0.0004267477 -0.00039733245 -0.0022628286 -0.0020213814 -0.0012954839 -0.0002502064 -0.00041344814
-0.0076236143 -0.01603855 -0.00040540932 -0.000255932 0.013107344 -0.00068707805 -0.00028008717 -0.00019579173
-0.00084400474 -0.0006694466 -0.00046628172 -4.5816516e-05 -0.0002467347 -0.0004267477 -0.00039733245 -0.0022628286
-0.0020213814 -0.0012882809 -0.0002502064 -0.00041344814 -0.0076236143 0.015861198 -0.00040540932 -0.000255932
0.037405916 -0.00068707805 -0.00028008717 -0.00019579173 -0.00084400474 -0.0006694466 -0.00046628172 -4.5816516e-05
-0.0002467347 -0.0004267477 -0.00039733245 -0.0022628286 -0.0020213814 -0.0012927694 -0.0002502064 -0.00041344814
-0.0076236143 -0.004771853 -0.00040540932 -0.000255932 0.051070843 -0.00068707805 -0.00028008717 -0.00019579173
-0.00084400474 -0.0006694466 -0.00046628172 -4.5816516e-05 -0.0002467347 -0.0004267477 -0.00039733245 -0.0022628286
-0.0020213814 -0.0013100168 -0.0002502064 -0.00041344814 -0.0076236143 0.016334804 -0.00040540932 -0.000255932
0.039990198 -0.00068707805 -0.00028008717 -0.00019579173 -0.00084400474 -0.0006694466 -0.00046628172 -4.5816516e-05
-0.0002467347 -0.0004267477 -0.00039733245 -0.0022628286 -0.0020213814 -0.0012986003 -0.0002502064 -0.00041344814
-0.0076236143 0.03965699 -0.00040540932 -0.000255932 0.03329194 -0.00068707805 -0.00028008717 -0.00019579173
-0.00084400474 -0.0006694466 -0.00046628172 -4.5816516e-05 -0.0002467347 -0.0004267477 -0.00039733245 -0.0022628286
-0.0020213814 -0.0013131669 -0.0002502064 -0.00041344814 -0.0076236143 0.042321227 -0.00040540932 -0.000255932
00000000: 3e78 2c3c 071d 34ba aad8 92b9 714d 4db9
00000010: 3340 5dba cd7d 2fba 4677 f4b9 1c2b 40b8
00000020: 2c5c 81b9 1bbd dfb9 0f51 d0b9 f74b 14bb
00000030: 2779 04bb c9af abba 222e 83b9 12c4 d8b9
00000040: 83cf f9bb 9b1b 92bd 1e8d d4b9 9d2e 86b9
00000050: 3a49 743d 071d 34ba aad8 92b9 714d 4db9
00000060: 3340 5dba cd7d 2fba 4677 f4b9 1c2b 40b8
00000070: 2c5c 81b9 1bbd dfb9 0f51 d0b9 f74b 14bb
00000080: 2779 04bb 0575 acba 222e 83b9 12c4 d8b9
00000090: 83cf f9bb 29e0 a7bb 1e8d d4b9 9d2e 86b9
000000a0: c234 ee3c 071d 34ba aad8 92b9 714d 4db9
000000b0: 3340 5dba cd7d 2fba 4677 f4b9 1c2b 40b8
000000c0: 2c5c 81b9 1bbd dfb9 0f51 d0b9 f74b 14bb
000000d0: 2779 04bb e6c9 acba 222e 83b9 12c4 d8b9
000000e0: 83cf f9bb 85cd c73a 1e8d d4b9 9d2e 86b9
000000f0: 1bf0 763d 071d 34ba aad8 92b9 714d 4db9
00000100: 3340 5dba cd7d 2fba 4677 f4b9 1c2b 40b8
00000110: 2c5c 81b9 1bbd dfb9 0f51 d0b9 f74b 14bb
00000120: 2779 04bb c00c adba 222e 83b9 12c4 d8b9
00000130: 83cf f9bb fae8 5abd 1e8d d4b9 9d2e 86b9
00000140: 560f 133d 071d 34ba aad8 92b9 714d 4db9
00000150: 3340 5dba cd7d 2fba 4677 f4b9 1c2b 40b8
00000160: 2c5c 81b9 1bbd dfb9 0f51 d0b9 f74b 14bb
00000170: 2779 04bb 3acd a9ba 222e 83b9 12c4 d8b9
00000180: 83cf f9bb 4763 83bc 1e8d d4b9 9d2e 86b9
00000190: 2fc0 563c 071d 34ba aad8 92b9 714d 4db9
000001a0: 3340 5dba cd7d 2fba 4677 f4b9 1c2b 40b8
000001b0: 2c5c 81b9 1bbd dfb9 0f51 d0b9 f74b 14bb
000001c0: 2779 04bb 89db a8ba 222e 83b9 12c4 d8b9
000001d0: 83cf f9bb 58ef 813c 1e8d d4b9 9d2e 86b9
000001e0: f236 193d 071d 34ba aad8 92b9 714d 4db9
000001f0: 3340 5dba cd7d 2fba 4677 f4b9 1c2b 40b8
00000200: 2c5c 81b9 1bbd dfb9 0f51 d0b9 f74b 14bb
00000210: 2779 04bb 2572 a9ba 222e 83b9 12c4 d8b9
00000220: 83cf f9bb 345d 9cbb 1e8d d4b9 9d2e 86b9
00000230: a92f 513d 071d 34ba aad8 92b9 714d 4db9
00000240: 3340 5dba cd7d 2fba 4677 f4b9 1c2b 40b8
00000250: 2c5c 81b9 1bbd dfb9 0f51 d0b9 f74b 14bb
00000260: 2779 04bb dfb4 abba 222e 83b9 12c4 d8b9
00000270: 83cf f9bb 91d0 853c 1e8d d4b9 9d2e 86b9
00000280: c3cc 233d 071d 34ba aad8 92b9 714d 4db9
00000290: 3340 5dba cd7d 2fba 4677 f4b9 1c2b 40b8
000002a0: 2c5c 81b9 1bbd dfb9 0f51 d0b9 f74b 14bb
000002b0: 2779 04bb cc35 aaba 222e 83b9 12c4 d8b9
000002c0: 83cf f9bb 5e6f 223d 1e8d d4b9 9d2e 86b9
000002d0: 215d 083d 071d 34ba aad8 92b9 714d 4db9
000002e0: 3340 5dba cd7d 2fba 4677 f4b9 1c2b 40b8
000002f0: 2c5c 81b9 1bbd dfb9 0f51 d0b9 f74b 14bb
00000300: 2779 04bb 921e acba 222e 83b9 12c4 d8b9
00000310: 83cf f9bb 0659 2d3d 1e8d d4b9 9d2e 86b9

bias f4 [20]
-0.2926313 0.0093900785 0.004408236 0.011421339 0.0015970471 0.0020972663 0.006117629 0.0032140678
0.003273352 0.005659689 0.0023181823 0.010227759 0.0014570985 0.001407375 0.0012384376 0.004335953
0.00049144815 0.251787 0.004850317 0.0019671044
00000000: c5d3 95be d8d8 193c f772 903b 9120 3b3c
00000010: 0254 d13a 4a72 093b 6476 c83b 1ca3 523b
00000020: bc85 563b ea74 b93b a5ec 173b 5592 273c
00000030: 1dfc be3a ab77 b83a 1253 a23a 9c14 8e3b
00000040: 87d4 003a 3aea 803e 68ef 9e3b 89ea 003b

weight f4 [20, 20]
-0.042555828 -0.03928864 -0.0010269952 -0.001058294 -0.0015814952 0.06306162 -0.044268172 -0.09079409
-0.00028603603 -0.008902171 -9.3824056e-05 0.015633423 -0.080581054 0.045053825 6.408084e-05 -0.0009220026
-0.0013120978 -0.0021374184 -0.0009591071 0.026420202 0.011811487 0.028081892 -0.0007659285 0.0006769545
-0.0006380395 -0.013718266 0.0024941606 0.012620184 0.0004442826 -0.046997566 0.0010102397 -0.0035733213
0.0009119467 0.013948567 0.0030486288 0.0007169511 -0.0017009994 0.00019260122 -0.00028950218 -0.014365012
0.004593668 -0.009212453 -0.000999976 0.00010007397 -0.0009771376 -0.010729892 0.009662508 -0.0136004845
-0.00016332211 0.010910991 -3.4691206e-05 0.0018655357 0.015459849 0.015713073 -0.00103152 -0.0005122077
-0.0011733862 -0.0013438466 -0.0003869908 -0.010016002 -0.004564059 0.0014994213 -5.954879e-05 -0.000106606254
-7.1491086e-05 -0.018247617 -0.00022530292 0.010684458 -1.7181294e-05 -0.00019951281 -5.5948105e-05 0.007974613
0.0042109624 0.004631777 -0.00010665259 -8.468284e-05 -0.00011047393 -0.0008283444 -3.9095736e-05 0.00436359
0.01079772 0.0018238935 0.0013979165 0.0016835962 0.0007228968 0.0055994936 0.0021671744 0.001963795
0.0001643613 -0.0076514063 0.00034426127 0.0077206185 0.0012582317 -0.00084229675 0.00089915347 0.0008121531
-3.451902e-05 0.0017306228 0.00023518226 -0.006426286 -0.0015828724 -0.00262116 0.0022990764 0.0054080468
0.0020801367 0.0033110443 0.0035293011 0.0007511196 0.00016137397 0.0056640445 0.0012869885 0.0015504808
-0.007904943 -0.0020107185 0.002412471 0.0005713227 0.003672911 0.001351994 0.00093846873 0.0014280679
-0.010001064 -0.0027871896 -0.00060264266 0.00016246205 -0.00026438944 0.0017103192 -0.0052885585 0.0037288456
-7.849149e-05 -0.0008997176 -1.0410033e-06 0.00035292524 -0.0010957525 -0.0030554817 -0.00038811617 -0.00016702151
-9.710681e-05 -0.00012993337 0.00011347259 -6.2577696e-05 -0.0001712401 0.0006189549 0.00031408767 0.00094157446
0.00029654114 -0.00011053069 0.0013559301 -0.0006600217 6.2751235e-05 -0.0003554005 0.00022449874 0.00056490104
0.00019956485 0.001045856 0.000118795215 0.00050325907 1.8642746e-05 0.00074200804 6.127028e-05 0.00041870392
-0.009672306 0.0025963304 -4.3791828e-05 4.2744327e-06 1.19581255e-05 0.002911562 -0.0008185555 -0.0035213288
9.23462e-07 -0.00021419222 -6.0632765e-06 0.0020599426 0.00059476244 -0.0017429319 -2.6113437e-05 1.0294689e-06
2.4218001e-05 1.0593076e-05 -2.7584929e-06 0.002321749 0.0011234862 0.0016600883 -7.970986e-05 -3.507814e-05
1.2267217e-05 -0.0004914407 0.0014287045 -0.0018049104 6.8657255e-07 0.00047346426 1.675112e-05 -0.0008229994
0.0013576971 0.0001498148 -0.00028982272 -4.3222328e-05 -0.00014164843 -0.000112926 -3.5327274e-05 -0.003188848
0.000619327 -0.0003295615 -1.1334359e-05 -4.6436755e-05 -3.704963e-05 -0.00034129788 -0.00066405424 0.00012353563
-1.1195078e-06 -0.00030967616 -2.416267e-05 0.00030137764 -0.0002914389 2.6367132e-05 -9.227466e-07 -6.724967e-05
-3.8735285e-05 -4.4490098e-05 -1.6163644e-05 -0.0005261249 0.007847785 0.008185544 -0.0035262676 -0.009496159
-0.0013674474 -0.013898136 0.0028432077 -0.0033603276 -0.00036367457 -0.030198243 -0.0029840905 -0.008297529
-0.007466653 0.0010793441 -0.0053870175 -0.0018704919 -0.0042611347 -0.0020043564 -0.0005785492 -0.0033508986
-0.023325345 -0.0019837243 -0.00131003 -0.0037470607 -0.0028403816 0.00043176502 -0.010538887 0.0021254818
-0.0006799384 -0.0048702215 -0.0014354915 -0.012878194 -0.0074101253 -0.013213039 -0.0072136642 -0.0021915631
00000000: 054f 2ebd 20ed 20bd 3e9c 86ba 74b6 8aba
00000010: 2c4a cfba 7326 813d 8b52 35bd 40f2 b9bd
00000020: 1bf7 95b9 69da 11bc 68c3 c4b8 aa11 803c
00000030: ae07 a5bd 5c8a 383d 2463 8638 8cb2 71ba
00000040: b2fa abba ee13 0cbb 976c 7bba 2e6f d83c
00000050: f884 413c ff0b e63c 97c8 48ba a675 313a
00000060: 1b42 27ba 94c2 60bc 1275 233b e3c4 4e3c
00000070: 9aee e839 8580 40bd 056a 843a 622e 6abb
00000080: b50f 6f3a 8888 643c 81cb 473b c6f1 3b3a
00000090: 12f4 deba fff4 4939 53c8 97b9 3a5b 6bbc
000000a0: 7b86 963b d4ef 16bc a011 83ba cede d138
000000b0: 4c13 80ba 6ecc 2fbc 7f4f 1e3c 91d4 5ebc
000000c0: 7241 2bb9 03c4 323c 6681 11b8 fe84 f43a
000000d0: 4e4b 7d3c b4b8 803c 1134 87ba ad45 06ba
000000e0: 4fcc 99ba 0224 b0ba 07e5 cab9 281a 24bc
000000f0: 1a8e 95bb 3b88 c43a 07c4 79b8 cc91 dfb8
00000100: 7ced 95b8 077c 95bc 4b3f 6cb9 dd0d 2f3c
00000110: 8c20 90b7 5034 51b9 d2a9 6ab8 f4a7 023c
00000120: 1dfc 893b 29c6 973b acaa dfb8 c197 b1b8
00000130: 3dae e7b8 4025 59ba bafa 23b8 72fc 8e3b
00000140: ece8 303c b60f ef3a 4b3a b73a 1dac dc3a
00000150: c880 3d3a f57b b73b 2707 0e3b 03b3 003b
00000160: 6758 2c39 a6b8 fabb f77d b439 3efd fc3b
00000170: 40eb a43a 94cd 5cba 2bb5 6b3a ace6 543a
00000180: 84c8 10b8 11d6 e23a 429b 7639 9893 d2bb
00000190: 6278 cfba c4c7 2bbb 1aac 163b fc35 b13b
000001a0: e752 083b 1bfe 583b d94b 673b c8e6 443a
000001b0: 7f36 2939 7399 b93b 2bb0 a83a 8139 cb3a
000001c0: bc83 01bc 42c6 03bb 8c1a 1e3b d1c4 153a
000001d0: 39b5 703b 6435 b13a 9203 763a 022e bb3a
000001e0: 81db 23bc 48a9 36bb aafa 1dba 935a 2a39
000001f0: c09d 8ab9 ca2c e03a a54b adbb a65f 743b
00000200: cc9b a4b8 07db 6bba 9ab8 8bb5 d308 b939
00000210: 5a9f 8fba 7a3e 48bb 127c cbb9 7f22 2fb9
00000220: d2a5 cbb8 b93e 08b9 22f8 ed38 253c 83b8
00000230: ea8e 33b9 5c41 223a 22ac a439 fed3 763a
00000240: 1479 9b39 b6cc e7b8 77b9 b13a 4e05 2dba
00000250: 5099 8338 0c55 bab9 6c67 6b39 de15 143a
00000260: 4842 5139 1b15 893a b221 f938 25ed 033a
00000270: fe62 9c37 5183 423a 3b7e 8038 7d85 db39
00000280: 9778 1ebc 3227 2a3b 1ead 37b8 196d 8f36
00000290: c29f 4837 e8cf 3e3b 5494 56ba 18c6 66bb
000002a0: d3e3 7735 c998 60b9 2673 cbb6 1a00 073b
000002b0: d5e9 1b3a 1773 e4ba 2e0e dbb7 482c 8a35
000002c0: c327 cb37 eab8 3137 8c1e 39b6 7c28 183b
000002d0: f141 933a 5297 d93a e829 a7b8 de20 13b8
000002e0: 4ccf 4d37 07d4 00ba 5e43 bb3a be92 ecba
000002f0: e84c 3835 4c3b f839 c284 8c37 8ebe 57ba
00000300: c1f4 b13a 9b17 1d39 59f3 97b9 9f49 35b8
00000310: 7687 14b9 afd2 ecb8 5f2c 14b8 fefb 50bb
00000320: 555a 223a ffc8 acb9 b428 3eb7 16c5 42b8
00000330: bd65 1bb8 3af0 b2b9 ed13 2eba 5889 0139
00000340: ff41 96b5 085c a2b9 f0b0 cab7 3902 9e39
00000350: 44cc 98b9 fc2e dd37 aab2 77b5 6408 8db8
00000360: b277 22b8 e19a 3ab8 2997 87b7 a5eb 09ba
00000370: ff93 003c a91c 063c f418 67bb c795 1bbc
00000380: ec3b b3ba 02b5 63bc 1c55 3a3b f138 5cbb
00000390: 93ab beb9 4e62 f7bc bb90 43bb 5cf2 07bc
000003a0: d3aa f4bb c778 8d3a 9485 b0bb 4b2b f5ba
000003b0: fda0 8bbb 855b 03bb c8a9 17ba c09a 5bbb
000003c0: cb14 bfbc 5f01 02bb 50b5 abba 3f91 75bb
000003d0: b225 3abb 855e e239 4cab 2cbc ab4b 0b3b
000003e0: e53d 32ba 6196 9fbb 1a27 bcba 10ff 52bc
000003f0: a3d0 f2bb 817b 58bc 9a60 ecbb 54a0 0fbb

bias f4 [20]
0.017181924 0.057379093 0.0013282577 0.00040402697 0.002918602 -0.072961085 0.021672374 0.07779257
0.00055043283 0.03279042 0.0006877161 0.019441813 0.12144618 -0.049800485 0.00022889746 0.0024203295
0.0029800572 0.004475189 0.001754768 -0.057901517
00000000: 1bc1 8c3c 5706 6b3d ef18 ae3a 95d3 d339
00000010: 0446 3f3b 9f6c 95bd 438a b13c b651 9f3d
00000020: ec4a 103a 3f4f 063d d947 343a 7044 9f3c
00000030: c6b8 f83d 98fb 4bbd 3204 7039 649e 1e3b
00000040: 104d 433b 9ba4 923b 3e00 e63a 242a 6dbd

weight f4 [20, 20]
0.030164903 -0.0060787466 0.019945823 -0.014936074 -0.019565368 -0.03358187 0.00067165995 -0.0040165824
0.07859155 0.0003132989 0.0004841312 -0.019880742 0.00010892759 -0.029208189 0.00026330233 -0.00011511227
-0.0022977975 -6.8014274e-06 0.00034112533 0.00023402848 0.032000046 -0.020549998 0.020543505 -0.0030865157
-0.004328818 -0.008124607 5.41103e-05 -0.0149215795 -0.011745 2.2659033e-05 0.00027835424 -0.0043927813
-6.783078e-05 -0.0066720513 -2.361793e-05 -0.0002604996 -0.00910739 5.053136e-05 9.80178e-05 5.8953788e-06
0.003044349 0.001243928 0.0023632857 0.00040984838 0.0005899376 0.00067864085 2.6501368e-05 0.0025260693
0.0018861775 9.0661524e-05 0.00019564336 0.00046932555 -5.112871e-05 0.0004006214 8.659425e-05 0.00013630603
0.001535908 0.00013708867 4.887702e-05 0.00021278475 -0.0003717105 -0.0013774558 0.0025164317 -0.0010775223
-0.0014613069 -0.0027102581 0.00017104221 0.00017502117 0.0062711057 -6.6335165e-06 8.9544756e-08 -0.0013527599
-2.9017947e-05 -0.0020347207 -1.2927695e-05 1.6565586e-05 -0.0015331546 -4.0523522e-05 -1.3815818e-06 7.126477e-06
0.0027721894 0.0012339086 0.0030957644 0.00043627777 0.00020988293 0.000295317 -5.9994276e-05 0.0015884832
-0.001739557 -3.4074226e-05 0.00024012286 2.168683e-05 -4.2831383e-05 -0.0008418226 -1.670528e-05 -3.0560965e-05
0.00087031507 -6.431079e-05 -3.3615725e-05 0.0006734513 -0.06715957 -0.055347294 -0.046728205 -0.039417036
-0.05027012 -0.08420457 -5.102429e-06 -0.041295916 -0.043916777 -0.00012290204 -0.00031661228 -0.050569586
1.222644e-05 -0.0757949 -8.894457e-05 -0.00051371177 -0.026857981 -6.684073e-05 -0.00010742 -0.00016044662
0.04898166 0.0729939 0.033924475 0.018406177 0.022655686 0.03852723 9.3967545e-05 0.050928283
0.032115042 0.00030776538 -0.00019758285 0.02307061 0.00010664597 0.03458865 0.0001451915 0.0007019579
0.032399595 0.00029183537 -0.000100769445 0.000174778 -0.08050694 -0.045508295 -0.054086477 -0.00766273
-0.009935925 -0.017404893 -0.0005210628 -0.030946292 -0.08610181 -0.00036321016 -0.0005315005 -0.0102018835
-0.000117764 -0.016066438 -0.00029919684 -0.00035110518 -0.02001346 -0.00012286704 -0.0002169094 -0.00020722458
0.00052926084 -0.00022874837 -5.430598e-05 -5.5057342e-05 -3.2848952e-06 -0.0013479941 -3.0500136e-05 -0.00024279287
-0.00017532006 -3.7442976e-06 -2.3321945e-08 9.00819e-06 -6.150916e-06 -0.0011436854 -1.0541512e-05 -1.2771587e-05
-0.00021211014 -2.0294094e-05 -1.0035859e-05 1.4815114e-06 -0.026345097 0.014450146 -0.018863259 -0.009438043
-0.013474683 -0.026757082 3.4258832e-05 0.00791162 -0.058049794 0.00016432833 -0.0015112186 -0.013482875
-7.7940575e-05 -0.023548277 -0.00012183034 0.0002240196 0.0049711284 8.404283e-05 -0.0006422899 0.00028572365
-0.001378441 -0.0009776355 0.00023302577 -0.00045145687 -0.0009993244 -0.0013819849 -3.1640553e-05 0.00057999475
0.0028290024 -3.9721604e-06 1.2207993e-05 -0.00088478875 -1.4420977e-05 -0.0011601277 -7.3290375e-06 6.213586e-07
-0.00020158998 -1.3538672e-05 -3.35713e-06 -1.1645316e-05 0.0064862734 -0.009415067 0.0040513207 0.013218937
0.017291738 0.030511653 5.1477662e-05 -0.0067053786 0.025837464 1.00914385e-05 -0.00020651701 0.017679263
3.156751e-05 0.027143527 7.0976e-05 -0.00012097311 -0.0039551766 -0.00014753002 -0.00014130546 -3.8317048e-05
-0.061171517 -0.05491247 -0.042527344 -0.020533703 -0.027200572 -0.047991488 -0.00055411464 -0.04031379
-0.08506652 -0.00047572074 0.0007010088 -0.028281167 -0.00015399109 -0.043210875 -0.0003970417 -0.00053619145
00000000: 631c f73c 3930 c7bb 6c65 a33c 6fb6 74bc
00000010: 8d47 a0bc 258d 09bd 5612 303a 899d 83bb
00000020: 9bf4 a03d 4442 a439 fdd2 fd39 f0dc a2bc
00000030: 0e70 e438 0346 efbc d70b 8a39 6e68 f1b8
00000040: a596 16bb d137 e4b6 11d9 b239 8b65 7539
00000050: 7b12 033d 7858 a8bc da4a a83c 2447 4abb
00000060: c2d8 8dbb 121d 05bc 7ef4 6238 a479 74bc
00000070: 1a6e 40bc e713 be37 13f0 9139 52f1 8fbb
00000080: 5f40 8eb8 39a1 dabb 1e1f c6b7 aa93 88b9
00000090: 2a37 15bc a2f1 5338 e88e cd38 ebd0 c536
000000a0: b383 473b 4c0b a33a 5be1 1a3b ebe0 d639
000000b0: 0ba6 1a3a d1e6 313a 414f de37 698c 253b
000000c0: 9d39 f73a 8921 be38 9d25 4d39 cf0f f639
000000d0: 0973 56b8 7e0a d239 ef99 b538 5fed 0e39
000000e0: 8550 c93a 76bf 0f39 4d01 4d38 f91e 5f39
000000f0: 24e2 c2b9 bf8b b4ba b8ea 243b a63b 8dba
00000100: 5389 bfba 969e 31bb cb59 3339 e385 3739
00000110: d97d cd3b 7995 deb6 c04b c033 174f b1ba
00000120: 916b f3b7 f358 05bb 07e4 58b7 53f6 8a37
00000130: 22f4 c8ba cdf7 29b8 ca6e b9b5 f91f ef36
00000140: 9fad 353b 1abb a13a 4fe2 4a3b 36bc e439
00000150: 0514 5c39 c7d4 9a39 5da2 7bb8 a734 d03a
00000160: d901 e4ba ecea 0eb8 7dc9 7b39 1dec b537
00000170: d9a5 33b8 c2ad 5cba 5122 8cb7 962e 00b8
00000180: db25 643a 98de 86b8 9cfe 0cb8 8d8a 303a
00000190: f58a 89bd d8b3 62bd 1366 3fbd c273 21bd
000001a0: 0be8 4dbd 7273 acbd 8835 abb6 e825 29bd
000001b0: 14e2 33bd 44df 00b9 fbfe a5b9 0e22 4fbd
000001c0: 2920 4d37 5b3a 9bbd c187 bab8 9daa 06ba
000001d0: 4505 dcbc d82c 8cb8 ac46 e1b8 903d 28b9
000001e0: fea0 483d d37d 953d 64f4 0a3d 8dc8 963c
000001f0: 6b98 b93c bbce 1d3d 7110 c538 2d9a 503d
00000200: 108b 033d 925b a139 3e2e 4fb9 93fe bc3c
00000210: 1fa7 df38 d4ac 0d3d 8c3e 1839 9903 383a
00000220: 70b5 043d 7b01 9939 2f54 d3b8 9d44 3739
00000230: d3e0 a4bd e866 3abd c889 5dbd a317 fbbb
00000240: 4aca 22bc b594 8ebc ef97 08ba 1483 fdbc
00000250: 2556 b0bd 3e6d beb9 6554 0bba cd25 27bc
00000260: 11f8 f6b8 c39d 83bc 85dd 9cb9 8a14 b8b9
00000270: 45f3 a3bc dfd5 00b9 2c72 63b9 6d4a 59b9
00000280: 18be 0a3a 2cdc 6fb9 9ac6 63b8 5fed 66b8
00000290: 1272 5cb6 2daf b0ba 8bda ffb7 3796 7eb9
000002a0: 1fd6 37b9 8b46 7bb6 8055 c8b2 e221 1737
000002b0: f763 ceb6 b7e7 95ba 73db 30b7 8c45 56b7
000002c0: e269 5eb9 3c3d aab7 b05f 28b7 58d8 c635
000002d0: acd1 d7bc 4ec0 6c3c 1f87 9abc 06a2 1abc
000002e0: ebc4 5cbc ab31 dbbc 24b1 0f38 bd9f 013c
000002f0: 9fc5 6dbd 8d4f 2c39 1514 c6ba 47e7 5cbc
00000300: 0774 a3b8 51e8 c0bc 2a7f ffb8 cee6 6a39
00000310: d9e4 a23b 2740 b038 585f 28ba 2ecd 9539
00000320: ceac b4ba 0124 80ba 6158 7439 84b1 ecb9
00000330: c3fb 82ba b823 b5ba c9b5 04b8 ca0a 183a
00000340: c966 393b 9948 85b6 eed0 4c37 2bf1 67ba
00000350: a0f1 71b7 6d0f 98ba f4eb f5b6 70cb 2635
00000360: e661 53b9 2724 63b7 0e4b 61b6 4060 43b7
00000370: ce8a d43b a741 1abc f1c0 843b 3e94 583c
00000380: 67a7 8d3c 93f3 f93c b8e9 5738 cbb8 dbbb
00000390: 17a9 d33c 664e 2937 7d8c 58b9 1ad4 903c
000003a0: 5b67 0438 1a5c de3c f3d8 9438 f2b2 fdb8
000003b0: 6d9a 81bb 4ab2 1ab9 652b 14b9 9eb6 20b8
000003c0: fc8e 7abd e6eb 60bd 2731 2ebd 4c36 a8bc
000003d0: bcd3 debc b992 44bd 0142 11ba 1320 25bd
000003e0: 5b37 aebd 286a f9b9 e7c3 373a e8ad e7bc
000003f0: ab78 21b9 e3fd 30bd 092a d0b9 338f 0cba

bias f4 [20]
-0.015559176 -0.026838854 -0.010613209 -0.00474469 -0.0062343124 -0.010993383 -0.00028965066 -0.019026475
-0.049258396 -0.0002741518 -0.00034908974 -0.0063729803 -8.8356675e-05 -0.009672307 -0.00021515996 -0.00025110593
-0.011772948 -0.00022064557 -0.00019793925 -0.00021481262
00000000: eaeb 7ebc 28dd dbbc 06e3 2dbc 5879 9bbb
00000010: 3449 ccbb 971d 34bc 41dc 97b9 69dd 9bbc
00000020: 2cc3 49bd 08bc 8fb9 0806 b7b9 6fd4 d0bb
00000030: 214c b9b8 9978 1ebc 909c 61b9 dea6 83b9
00000040: 53e3 40bc 185d 67b9 ea8d 4fb9 533f 61b9

weight f4 [2, 60]
0.16857356 -0.00075667887 0.0005414285 0.0022378287 -0.0034670602 0.0034905255 0.0018256924 0.0018709586
-0.00019193807 0.0015270654 0.0010549866 0.00092723244 -0.0022860563 -0.00020229518 -7.3417177e-06 -0.0010892861
-0.0020027026 0.1573738 0.0023361782 0.00025744282 0.053221848 0.059387416 0.0002671138 8.188377e-05
0.0035004467 0.009488513 0.036958635 0.09867206 0.0009554492 0.05483809 0.0013325207 0.07160837
0.09937625 0.07695331 0.00027449522 0.003166267 0.00379757 0.006425632 0.0021192762 -0.02973967
-0.6350142 -0.6670358 -0.43476382 -0.19243991 -0.24910074 -0.4325871 -0.0052326424 -0.47036564
-0.8386305 -0.0046353573 -0.0040999036 -0.2543551 -0.0018389784 -0.3881654 -0.0041225315 -0.006836717
-0.29430118 -0.0018493024 -0.0020703147 -0.0033259438 -0.16857359 0.0007566786 -0.0005414278 -0.0022378382
0.0034670543 -0.0034905432 -0.0018257026 -0.0018709715 0.00019193738 -0.001527071 -0.0010549875 -0.00092724443
0.0022860542 0.00020229461 7.34099e-06 0.0010892865 0.002002699 -0.15737393 -0.0023361854 -0.0002574469
-0.053221866 -0.05938742 -0.0002671155 -8.188311e-05 -0.0035004572 -0.009488518 -0.036958653 -0.09867206
-0.0009554525 -0.054838106 -0.0013325266 -0.07160838 -0.09937629 -0.07695333 -0.0002744958 -0.0031662805
-0.003797583 -0.00642565 -0.002119284 0.029739665 0.635014 0.66703576 0.43476382 0.19243988
0.24910076 0.432587 0.005232643 0.47036567 0.8386307 0.0046353578 0.0040999013 0.25435513
0.0018389786 0.3881654 0.0041225306 0.0068367156 0.29430118 0.0018493021 0.0020703145 0.0033259434
00000000: 8c9e 2c3e dc5b 46ba a7ee 0d3a 89a8 123b
00000010: 9e37 63bb 4dc1 643b 124c ef3a f43a f53a
00000020: fc42 49b9 d027 c83a 7a47 8a3a 8411 733a
00000030: a9d1 15bb 331f 54b9 e058 f6b6 60c6 8eba
00000040: c63f 03bb 9926 213e 911a 193b 64f9 8639
00000050: 27ff 593d 3840 733d 680b 8c39 04b9 ab38
00000060: c067 653b b575 1b3c f061 173d 9414 ca3d
00000070: 1c77 7a3a e89d 603d faa7 ae3a 69a7 923d
00000080: c685 cb3d b299 9d3d 20ea 8f39 2581 4f3b
00000090: a7e0 783b 1c8e d23b 8ee3 0a3b 9ca0 f3bc
000000a0: 4a90 22bf dcc2 2abf 5d99 debe f80e 45be
000000b0: 4414 7fbe 0e7c ddbe 9676 abbb c4d3 f0be
000000c0: 7db0 56bf 32e4 97bb 7c58 86bb d53a 82be
000000d0: e009 f1ba 9ebd c6be 4d16 87bb 8a06 e0bb
000000e0: a5ae 96be 4b64 f2ba 1eae 07bb 14f8 59bb
000000f0: 8e9e 2cbe d75b 463a 9bee 0dba b2a8 12bb
00000100: 8537 633b 99c1 64bb 6a4c efba 633b f5ba
00000110: cc42 4939 0028 c8ba 8247 8aba 5212 73ba
00000120: a0d1 153b 0c1f 5439 a052 f636 64c6 8e3a
00000130: b73f 033b a226 21be b01a 19bb f0f9 86b9
00000140: 2cff 59bd 3940 73bd a30b 8cb9 a9b8 abb8
00000150: ed67 65bb bb75 1bbc f561 17bd 9414 cabd
00000160: 5577 7aba ec9d 60bd 2ca8 aeba 6aa7 92bd
00000170: cc85 cbbd b599 9dbd 34ea 8fb9 5f81 4fbb
00000180: dfe0 78bb 428e d2bb afe3 0abb 99a0 f33c
00000190: 4790 223f dbc2 2a3f 5d99 de3e f60e 453e
000001a0: 4514 7f3e 0b7c dd3e 9776 ab3b c5d3 f03e
000001b0: 80b0 563f 33e4 973b 7758 863b d63a 823e
000001c0: e209 f13a 9ebd c63e 4b16 873b 8706 e03b
000001d0: a5ae 963e 4864 f23a 1dae 073b 12f8 593b

bias f4 [2]
0.17183885 -0.17183903
00000000: 86f6 2f3e 92f6 2fbe

embedding_tensor f4 [2000, 60]
0.9707118 0.010320936 0.0065849735 0.038769282 0.0 0.0 0.0059600007 0.011290248
0.003302001 0.005703549 0.0 0.0 0.0 0.0 0.0 0.00082537904
0.0 0.8880343 0.0032619296 0.0 0.30491915 0.31382734 0.0041441275 0.0
0.017302683 0.0 0.19366094 0.57057774 0.0034116225 0.30203432 0.007462252 0.4329637
0.58949894 0.52185476 0.003640843 0.019077502 0.021342015 0.030021753 0.0103027625 0.0
-0.34087592 -0.385439 -0.23265187 -0.09879569 -0.1305966 -0.23147427 -0.0027051617 -0.27517653
-0.5902071 -0.0017863197 -0.00074215775 -0.13363075 -0.0009710547 -0.20563129 -0.0019635598 -0.0035799386
-0.17359866 -0.00034596433 -0.001259516 -0.00084941316 0.96970814 0.010320936 0.0065849735 0.038769282
0.0 0.0 0.0059600007 0.011290248 0.003302001 0.005703549 0.0 0.0
0.0 0.0 0.0 0.00082537904 0.0 0.8880343 0.0032619296 0.0
0.285594 0.33738723 0.00415513 0.0 0.017314663 0.23827134 0.18772133 0.5735095
0.003413661 0.30200875 0.007460038 0.4325708 0.58949894 0.5151114 0.0036383846 0.019080404
0.021348778 0.03003493 0.010310114 0.060061067 0.81630355 0.76411414 0.55499053 0.2818681
0.35158005 0.589506 0.0060046935 0.5183072 0.96037185 0.0061066584 -0.0004143617 0.35803494
0.0021978153 0.53365946 0.0048779626 0.0061184093 0.34354663 0.0038459653 -0.0011934063 0.0046381284
0.96890527 0.010320936 0.0065849735 0.038769282 0.0 0.0 0.0059600007 0.011290248
0.003302001 0.005703549 0.0 0.0 0.0 0.0 0.0 0.00082537904
0.0 0.8880343 0.0032619296 0.0 0.28395465 0.31382734 0.00416016 0.0
0.017266667 0.0 0.15547459 0.56108415 0.003414632 0.29999143 0.0073749446 0.4301265
0.58949894 0.52079237 0.003598013 0.018974239 0.021241168 0.029964795 0.010311268 0.0028889189
-0.34087592 -0.3820461 -0.23265187 -0.09879569 -0.1305966 -0.23147427 -0.0026234237 -0.2750803
-0.5865601 -0.0017033031 -0.00092259154 -0.13363075 -0.0009572533 -0.20563129 -0.0018969214 -0.0035791828
-0.17358546 -0.0002652078 -0.0012168798 -0.00075567025 0.96890527 0.010320936 0.0065849735 0.038769282
0.0 0.0 0.0059600007 0.011290248 0.003302001 0.005703549 0.0 0.0
0.0 0.0 0.0 0.00082537904 0.0 0.8880343 0.0032619296 0.0
0.28854647 0.33738723 0.00416016 0.0 0.017266667 0.0 0.18198651 0.5735095
0.003414632 0.29999143 0.0073749446 0.4301265 0.58949894 0.52185476 0.003598013 0.018974239
0.021241168 0.029964795 0.010311268 0.0 -0.34087592 -0.38364142 -0.23265187 -0.09656684
-0.1290263 -0.22896194 -0.002593991 -0.27313054 -0.5863284 -0.0016764643 -0.0006177017 -0.13336588
-0.000922888 -0.20448522 -0.0018664567 -0.0035207067 -0.17240423 -0.0002317182 -0.001235467 -0.0007204284
0.9701968 0.010320936 0.0065849735 0.038769282 0.0 0.0 0.0059600007 0.011290248
0.003302001 0.005703549 0.0 0.0 0.0 0.0 0.0 0.00082537904
00000000: 9280 783f 2519 293c c3c6 d73b 8acc 1e3d
00000010: 0000 0000 0000 0000 1c4c c33b bbfa 383c
00000020: 6266 583b d6e4 ba3b 0000 0000 0000 0000
00000030: 0000 0000 0000 0000 0000 0000 405e 583a
00000040: 0000 0000 3756 633f 19c6 553b 0000 0000
00000050: 5d1e 9c3e faad a03e 76cb 873b 0000 0000
00000060: 5bbe 8d3c 0000 0000 0e4f 463e 6211 123f
00000070: 8795 5f3b 3ea4 9a3e e885 f43b 6bad dd3e
00000080: 67e9 163f 4698 053f 369b 6e3b 6c48 9c3c
00000090: 73d5 ae3c 2ef0 f53c ebcc 283c 0000 0000
000000a0: 4a87 aebe 4358 c5be 4b3c 6ebe 6555 cabd
000000b0: 1dbb 05be 9707 6dbe 1549 31bb f0e3 8cbe
000000c0: d017 17bf f122 eaba 5d8d 42ba 80d6 08be
000000d0: 618e 7eba 0291 52be 11af 00bb 679d 6abb
000000e0: d9c3 31be 8c62 b5b9 5816 a5ba 27ab 5eba
000000f0: cb3e 783f 2519 293c c3c6 d73b 8acc 1e3d
00000100: 0000 0000 0000 0000 1c4c c33b bbfa 383c
00000110: 6266 583b d6e4 ba3b 0000 0000 0000 0000
00000120: 0000 0000 0000 0000 0000 0000 405e 583a
00000130: 0000 0000 3756 633f 19c6 553b 0000 0000
00000140: 6039 923e 05be ac3e c227 883b 0000 0000
00000150: 7bd7 8d3c 67fd 733e 053a 403e 85d1 123f
00000160: bab7 5f3b e4a0 9a3e 5673 f43b eb79 dd3e
00000170: 67e9 163f 57de 033f f771 6e3b 824e 9c3c
00000180: a2e3 ae3c d00b f63c c1eb 283c 9802 763d
00000190: 45f9 503f fc9c 433f dc13 0e3f 0451 903e
000001a0: 4d02 b43e dde9 163f 05c3 c43b c8af 043f
000001b0: eeda 753f 5d1a c83b b03e d9b9 5b50 b73e
000001c0: 3909 103b e89d 083f 51d7 9f3b f07c c83b
000001d0: 58e5 af3e 970c 7c3b 126c 9cba 71fb 973b
000001e0: 2d0a 783f 2519 293c c3c6 d73b 8acc 1e3d
000001f0: 0000 0000 0000 0000 1c4c c33b bbfa 383c
00000200: 6266 583b d6e4 ba3b 0000 0000 0000 0000
00000210: 0000 0000 0000 0000 0000 0000 405e 583a
00000220: 0000 0000 3756 633f 19c6 553b 0000 0000
00000230: 8162 913e faad a03e f451 883b 0000 0000
00000240: d372 8d3c 0000 0000 bb34 1f3e 36a3 0f3f
00000250: 05c8 5f3b 7a98 993e 85a9 f13b 8a39 dc3e
00000260: 67e9 163f a652 053f a4cc 6b3b dd6f 9b3c
00000270: f501 ae3c bb78 f53c 98f0 283c 0454 3d3b
00000280: 4a87 aebe 8c9b c3be 4b3c 6ebe 6555 cabd
00000290: 1dbb 05be 9707 6dbe bfed 2bbb 53d7 8cbe
000002a0: cd28 16bf 5e41 dfba 12da 71ba 80d6 08be
000002b0: 2ef0 7aba 0291 52be 1fa2 f8ba b990 6abb
000002c0: 63c0 31be 970b 8bb9 b67f 9fba 2c18 46ba
000002d0: 2d0a 783f 2519 293c c3c6 d73b 8acc 1e3d
000002e0: 0000 0000 0000 0000 1c4c c33b bbfa 383c
000002f0: 6266 583b d6e4 ba3b 0000 0000 0000 0000
00000300: 0000 0000 0000 0000 0000 0000 405e 583a
00000310: 0000 0000 3756 633f 19c6 553b 0000 0000
00000320: 5dbc 933e 05be ac3e f451 883b 0000 0000
00000330: d372 8d3c 0000 0000 ac5a 3a3e 85d1 123f
00000340: 05c8 5f3b 7a98 993e 85a9 f13b 8a39 dc3e
00000350: 67e9 163f 4698 053f a4cc 6b3b dd6f 9b3c
00000360: f501 ae3c bb78 f53c 98f0 283c 0000 0000
00000370: 4a87 aebe a66c c4be 4b3c 6ebe d6c4 c5bd
00000380: 781f 04be 0075 6abe f3ff 29bb c4d7 8bbe
00000390: 9e19 16bf cfbc dbba 42ed 21ba 1191 08be
000003a0: f7ed 71ba 9364 51be e5a3 f4ba a8bb 66bb
000003b0: bc8a 30be 61f9 72b9 65ef a1ba 22db 3cba
000003c0: d15e 783f 2519 293c c3c6 d73b 8acc 1e3d
000003d0: 0000 0000 0000 0000 1c4c c33b bbfa 383c
000003e0: 6266 583b d6e4 ba3b 0000 0000 0000 0000
000003f0: 0000 0000 0000 0000 0000 0000 405e 583a
