models/GCN_model_syn6_id.pth (torch, 489465 bytes, 9 tensors)

weight f4 [10, 20]
0	0xb906bc64	-0.00012849417
1	0xba69c960	-0.0008918252
2	0xba4039c8	-0.0007332829
3	0xba81cb76	-0.0009902555
4	0xb9302bee	-0.00016801033
5	0xbabee607	-0.0014564403
6	0xb91d30c7	-0.00014990858
7	0xbaffed6c	-0.0019525713
8	0x3d066099	0.032806966
9	0xbacf46b0	-0.0015813913
10	0xbab1c8f7	-0.001356392
11	0xba86c467	-0.0010281921
12	0xb9ccd98d	-0.00039072
13	0xb958d000	-0.00020676851
14	0xba3ce5e3	-0.00072058866
15	0xbca6232b	-0.020280441
16	0xba8633ce	-0.0010238828
17	0xba3971e8	-0.00070741633
18	0xbb2a4d07	-0.0025985853
19	0xba075ee2	-0.000516398
20	0xb906bc64	-0.00012849417
21	0xba69c960	-0.0008918252
22	0xba4039c8	-0.0007332829
23	0xba81cb76	-0.0009902555
24	0xb9302bee	-0.00016801033
25	0xbabee607	-0.0014564403
26	0xb91d30c7	-0.00014990858
27	0xbaffed6c	-0.0019525713
28	0x3d0eb18e	0.034837298
29	0xbacf46b0	-0.0015813913
30	0xbab1c8f7	-0.001356392
31	0xba86c467	-0.0010281921
32	0xb9ccd98d	-0.00039072
33	0xb958d000	-0.00020676851
34	0xba3ce5e3	-0.00072058866
35	0xbc0bc484	-0.00853074
36	0xba8633ce	-0.0010238828
37	0xba3971e8	-0.00070741633
38	0xbb2a4d07	-0.0025985853
39	0xba075ee2	-0.000516398
40	0xb906bc64	-0.00012849417
41	0xba69c960	-0.0008918252
42	0xba4039c8	-0.0007332829
43	0xba81cb76	-0.0009902555
44	0xb9302bee	-0.00016801033
45	0xbabee607	-0.0014564403
46	0xb91d30c7	-0.00014990858
47	0xbaffed6c	-0.0019525713
48	0x3d0234ea	0.031788744
49	0xbacf46b0	-0.0015813913
50	0xbab1c8f7	-0.001356392
51	0xba86c467	-0.0010281921
52	0xb9ccd98d	-0.00039072
53	0xb958d000	-0.00020676851
54	0xba3ce5e3	-0.00072058866
55	0x3cbf078b	0.023319026
56	0xba8633ce	-0.0010238828
57	0xba3971e8	-0.00070741633
58	0xbb2a4d07	-0.0025985853
59	0xba075ee2	-0.000516398
60	0xb906bc64	-0.00012849417
61	0xba69c960	-0.0008918252
62	0xba4039c8	-0.0007332829
63	0xba81cb76	-0.0009902555
64	0xb9302bee	-0.00016801033
65	0xbabee607	-0.0014564403
66	0xb91d30c7	-0.00014990858
67	0xbaffed6c	-0.0019525713
68	0x3d27d610	0.04097563
69	0xbacf46b0	-0.0015813913
70	0xbab1c8f7	-0.001356392
71	0xba86c467	-0.0010281921
72	0xb9ccd98d	-0.00039072
73	0xb958d000	-0.00020676851
74	0xba3ce5e3	-0.00072058866
75	0x3bd30a59	0.0064404425
76	0xba8633ce	-0.0010238828
77	0xba3971e8	-0.00070741633
78	0xbb2a4d07	-0.0025985853
79	0xba075ee2	-0.000516398
80	0xb906bc64	-0.00012849417
81	0xba69c960	-0.0008918252
82	0xba4039c8	-0.0007332829
83	0xba81cb76	-0.0009902555
84	0xb9302bee	-0.00016801033
85	0xbabee607	-0.0014564403
86	0xb91d30c7	-0.00014990858
87	0xbaffed6c	-0.0019525713
88	0x3d0c179b	0.0342022
89	0xbacf46b0	-0.0015813913
90	0xbab1c8f7	-0.001356392
91	0xba86c467	-0.0010281921
92	0xb9ccd98d	-0.00039072
93	0xb958d000	-0.00020676851
94	0xba3ce5e3	-0.00072058866
95	0x3bbc4020	0.005744949
96	0xba8633ce	-0.0010238828
97	0xba3971e8	-0.00070741633
98	0xbb2a4d07	-0.0025985853
99	0xba075ee2	-0.000516398
100	0xb906bc64	-0.00012849417
101	0xba69c960	-0.0008918252
102	0xba4039c8	-0.0007332829
103	0xba81cb76	-0.0009902555
104	0xb9302bee	-0.00016801033
105	0xbabee607	-0.0014564403
106	0xb91d30c7	-0.00014990858
107	0xbaffed6c	-0.0019525713
108	0x3ce4b343	0.02791751
109	0xbacf46b0	-0.0015813913
110	0xbab1c8f7	-0.001356392
111	0xba86c467	-0.0010281921
112	0xb9ccd98d	-0.00039072
113	0xb958d000	-0.00020676851
114	0xba3ce5e3	-0.00072058866
115	0x3af58aa6	0.0018733337
116	0xba8633ce	-0.0010238828
117	0xba3971e8	-0.00070741633
118	0xbb2a4d07	-0.0025985853
119	0xba075ee2	-0.000516398
120	0xb906bc64	-0.00012849417
121	0xba69c960	-0.0008918252
122	0xba4039c8	-0.0007332829
123	0xba81cb76	-0.0009902555
124	0xb9302bee	-0.00016801033
125	0xbabee607	-0.0014564403
126	0xb91d30c7	-0.00014990858
127	0xbaffed6c	-0.0019525713
128	0x3d007912	0.03136546
129	0xbacf46b0	-0.0015813913
130	0xbab1c8f7	-0.001356392
131	0xba86c467	-0.0010281921
132	0xb9ccd98d	-0.00039072
133	0xb958d000	-0.00020676851
134	0xba3ce5e3	-0.00072058866
135	0x3b09d4ae	0.0021031308
136	0xba8633ce	-0.0010238828
137	0xba3971e8	-0.00070741633
138	0xbb2a4d07	-0.0025985853
139	0xba075ee2	-0.000516398
140	0xb906bc64	-0.00012849417
141	0xba69c960	-0.0008918252
142	0xba4039c8	-0.0007332829
143	0xba81cb76	-0.0009902555
144	0xb9302bee	-0.00016801033
145	0xbabee607	-0.0014564403
146	0xb91d30c7	-0.00014990858
147	0xbaffed6c	-0.0019525713
148	0x3d1056d2	0.03523905
149	0xbacf46b0	-0.0015813913
150	0xbab1c8f7	-0.001356392
151	0xba86c467	-0.0010281921
152	0xb9ccd98d	-0.00039072
153	0xb958d000	-0.00020676851
154	0xba3ce5e3	-0.00072058866
155	0xbc3160a9	-0.010826268
156	0xba8633ce	-0.0010238828
157	0xba3971e8	-0.00070741633
158	0xbb2a4d07	-0.0025985853
159	0xba075ee2	-0.000516398
160	0xb906bc64	-0.00012849417
161	0xba69c960	-0.0008918252
162	0xba4039c8	-0.0007332829
163	0xba81cb76	-0.0009902555
164	0xb9302bee	-0.00016801033
165	0xbabee607	-0.0014564403
166	0xb91d30c7	-0.00014990858
167	0xbaffed6c	-0.0019525713
168	0x3d1f9d09	0.03896812
169	0xbacf46b0	-0.0015813913
170	0xbab1c8f7	-0.001356392
171	0xba86c467	-0.0010281921
172	0xb9ccd98d	-0.00039072
173	0xb958d000	-0.00020676851
174	0xba3ce5e3	-0.00072058866
175	0x3c894463	0.016756242
176	0xba8633ce	-0.0010238828
177	0xba3971e8	-0.00070741633
178	0xbb2a4d07	-0.0025985853
179	0xba075ee2	-0.000516398
180	0xb906bc64	-0.00012849417
181	0xba69c960	-0.0008918252
182	0xba4039c8	-0.0007332829
183	0xba81cb76	-0.0009902555
184	0xb9302bee	-0.00016801033
185	0xbabee607	-0.0014564403
186	0xb91d30c7	-0.00014990858
187	0xbaffed6c	-0.0019525713
188	0x3d2e17b1	0.042503063
189	0xbacf46b0	-0.0015813913
190	0xbab1c8f7	-0.001356392
191	0xba86c467	-0.0010281921
192	0xb9ccd98d	-0.00039072
193	0xb958d000	-0.00020676851
194	0xba3ce5e3	-0.00072058866
195	0xbd40b2ac	-0.047045395
196	0xba8633ce	-0.0010238828
197	0xba3971e8	-0.00070741633
198	0xbb2a4d07	-0.0025985853
199	0xba075ee2	-0.000516398

bias f4 [20]
0	0x3b2798f8	0.0025573354
1	0x3bd08ad0	0.006364204
2	0x3bd25c48	0.006419692
3	0x3c8918ea	0.016735513
4	0x3b414bc7	0.002949463
5	0x3b985a1c	0.0046494137
6	0x3b10a873	0.002207306
7	0x3c99f660	0.018794239
8	0xbe90f6df	-0.28313348
9	0x3c532575	0.012887348
10	0x3c1545bf	0.009110867
11	0x3b892ab0	0.004185997
12	0x3b020552	0.0019839597
13	0x3b38664b	0.0028137143
14	0x3c4b6eac	0.012416523
15	0x3e72d370	0.2371347
16	0x3c6396e4	0.013890956
17	0x3bc5d4dd	0.006037338
18	0x3c3d9bb3	0.011572766
19	0x3c0efb6a	0.008726934

weight f4 [20, 20]
0	0x38175d50	3.608811e-05
1	0xb8b7e12c	-8.7680615e-05
2	0x3a9f32ff	0.0012145935
3	0x371a6432	9.202444e-06
4	0xb7aaa9d6	-2.0344665e-05
5	0x36333a98	2.6707185e-06
6	0xb6c68a17	-5.9169356e-06
7	0xb66565f2	-3.4183e-06
8	0xb6510a2a	-3.1149343e-06
9	0x381bc42b	3.7137575e-05
10	0xba0f57e6	-0.0005468115
11	0xb9324f68	-0.00017004984
12	0x385c4795	5.2518753e-05
13	0x3b0a1ed3	0.0021075502
14	0x3951a042	0.00019991494
15	0xb9ea4c9a	-0.0004468903
16	0xb77c4db8	-1.5038466e-05
17	0x3a54ae65	0.0008113145
18	0x362513f0	2.459852e-06
19	0x39011861	0.0001231148
20	0xb7c47294	-2.3418375e-05
21	0xbb5461a7	-0.0032406838
22	0x3a83bf0c	0.0010051443
23	0xb88e6dda	-6.791549e-05
24	0x3a8cda90	0.0010746289
25	0xb70649e9	-8.004231e-06
26	0xb7714a0b	-1.4381959e-05
27	0xb711f999	-8.7007875e-06
28	0xb6d90626	-6.4678197e-06
29	0xb71fab34	-9.517e-06
30	0xbb0c9cbb	-0.0021455723
31	0xba40787c	-0.00073421723
32	0xb7b905b5	-2.2056376e-05
33	0x3ac93814	0.0015351796
34	0x3b2d7830	0.0026469342
35	0x3a32dd91	0.0006823177
36	0xb88fcac7	-6.8565416e-05
37	0x3add2856	0.0016872983
38	0xb7ba0b26	-2.217812e-05
39	0x3ae8c34e	0.0017758401
40	0xb83a2c80	-4.43873e-05
41	0xbb41d1a6	-0.0029574423
42	0x3aaa169c	0.0012976709
43	0xb7951ea2	-1.7776449e-05
44	0xba02c5be	-0.00049885723
45	0xb7e05700	-2.6743393e-05
46	0xb7519a43	-1.2493288e-05
47	0xb747d135	-1.1910034e-05
48	0x374b685c	1.2124041e-05
49	0xb8052a40	-3.174902e-05
50	0x3a02e002	0.0004992486
51	0xb9cfee1b	-0.0003965952
52	0xb88c6153	-6.693848e-05
53	0x3b02fe90	0.0019988157
54	0xbb2e0da6	-0.0026558428
55	0xbb83ae98	-0.004018616
56	0xb7d737a2	-2.5655903e-05
57	0x3a6e8b4a	0.0009099735
58	0x3720fc8e	9.595546e-06
59	0xbb2aebb0	-0.0026080422
60	0x38f9ec5a	0.00011917269
61	0x379c9e79	1.8670444e-05
62	0x3ba5b984	0.0050575156
63	0x377f774e	1.5226962e-05
64	0xb89aa0c5	-7.373238e-05
65	0xb6ebd774	-7.028628e-06
66	0xb74ca914	-1.2198714e-05
67	0xb70cca39	-8.391734e-06
68	0xb742b980	-1.1606491e-05
69	0x388b86fc	6.653179e-05
70	0xba2c0aff	-0.0006562918
71	0xb8e6c52b	-0.0001100398
72	0xb7dfe4d0	-2.669022e-05
73	0x3be540f8	0.0069962703
74	0x3bdfda59	0.006831449
75	0xbb7b5797	-0.0038351768
76	0xb90cb887	-0.00013420182
77	0x371df8e0	9.415875e-06
78	0x37204988	9.5538635e-06
79	0x3b02b257	0.0019942725
80	0xb5554920	-7.9455094e-07
81	0x3adc8612	0.0016824624
82	0xb8f519ed	-0.000116873394
83	0x353a5840	6.941882e-07
84	0x3a169277	0.0005743871
85	0xb590071c	-1.0730905e-06
86	0x35c07c1c	1.4341235e-06
87	0xb255a3e0	-1.2435493e-08
88	0x3654f4e2	3.1733002e-06
89	0x38552b64	5.0823568e-05
90	0xbb19691b	-0.0023408595
91	0xb9a61d49	-0.00031683806
92	0x377dd744	1.5130096e-05
93	0x3a9e497c	0.0012076343
94	0x37257ac4	9.86335e-06
95	0x3abdd47f	0.0014482884
96	0x36a027e8	4.7730173e-06
97	0x3af31306	0.0018545098
98	0x3725e961	9.889104e-06
99	0x3a4f6097	0.00079108163
100	0x3b4cc0cc	0.0031242846
101	0x3bdb3e0b	0.0066907457
102	0x3c088f01	0.008334876
103	0x3b015975	0.0019737158
104	0x3bb2fd9d	0.005462362
105	0x3b4a767f	0.0030893383
106	0x3ac251b6	0.0014825377
107	0x3a6998ab	0.0008910994
108	0xb6e25980	-6.745744e-06
109	0x39cbc498	0.0003886565
110	0x3b79c440	0.003811136
111	0x3adefa92	0.0017011932
112	0x3c39eaf9	0.011347526
113	0x3c25571a	0.010091567
114	0x3bbbe736	0.0057343496
115	0x3c0f8ff4	0.008762348
116	0x3a1d40d6	0.0005998736
117	0xbb2cefc5	-0.002638803
118	0x3add0ad5	0.001686419
119	0x3c4441ae	0.01197855
120	0x398d61cb	0.00026966477
121	0x3aacec68	0.0013193013
122	0x3a509906	0.00079573726
123	0x37f96258	2.9728908e-05
124	0x399ec1a4	0.00030280382
125	0x3948ee6d	0.00019162307
126	0x38c6fa92	9.488048e-05
127	0x3852a5b2	5.0222217e-05
128	0x387e8f60	6.0691847e-05
129	0x393acf61	0.00017815597
130	0x3a34f04e	0.0006902263
131	0x3a5ace0e	0.00083467446
132	0x3a33cda0	0.00068589486
133	0x3ad99f7a	0.0016603314
134	0x3b3ce39c	0.002882219
135	0xb7fbf3f0	-3.0035124e-05
136	0x3838ec31	4.408899e-05
137	0xb7e949ac	-2.781007e-05
138	0x384344f5	4.6555844e-05
139	0x3a102aaf	0.00054995244
140	0xb7fac916	-2.989596e-05
141	0x3b2a4b24	0.0025984729
142	0xb9afd5d5	-0.00033537918
143	0x37c7cf25	2.3819108e-05
144	0xbab52143	-0.0013819117
145	0xb805a3d6	-3.1862255e-05
146	0x3621fc14	2.4137598e-06
147	0x369bf9ca	4.6484392e-06
148	0x367a446c	3.729273e-06
149	0x3759246d	1.2942689e-05
150	0x3b09ad71	0.002100792
151	0xbb39cf6a	-0.0028352388
152	0x36917365	4.3347704e-06
153	0xbaf5b2cf	-0.0018745306
154	0xbbb23f27	-0.0054396573
155	0xbc1e14dd	-0.009648529
156	0xb516b378	-5.6140516e-07
157	0x3bd2baa6	0.0064309416
158	0x364eccb1	3.0815538e-06
159	0x3b0ed4ee	0.0021794396
160	0xbb1de37c	-0.002409189
161	0x3d73d739	0.059531424
162	0xbcf9fd09	-0.030516164
163	0xba9a685b	-0.0011780368
164	0x3b9c9b4e	0.004779256
165	0xbacadf5f	-0.0015477947
166	0xba83ce15	-0.0010055924
167	0xba06d283	-0.0005143063
168	0xbab60f5b	-0.0013890074
169	0xbc0874d3	-0.008328634
170	0x3cac4e43	0.021033412
171	0x3caba066	0.020950507
172	0xbb80cf55	-0.003930966
173	0xbd27393e	-0.040826075
174	0xbd27dcd9	-0.0409821
175	0x3cf82f2b	0.030295929
176	0xbbe9feb8	-0.0071409605
177	0xbdb22731	-0.086988814
178	0xbaf3a6e4	-0.0018589166
179	0xbda66cb1	-0.081262
180	0x366fa5fc	3.571039e-06
181	0x3bf9343e	0.0076051047
182	0x39d56fd8	0.00040709856
183	0xb60dbc09	-2.1120088e-06
184	0x39675918	0.00022063067
185	0x3604396d	1.970296e-06
186	0xb353e0c8	-4.9331703e-08
187	0x34d7b83a	4.0180913e-07
188	0xb38150f8	-6.021759e-08
189	0xb47eacfc	-2.3718525e-07
190	0x39a4a52f	0.0003140359
191	0xba9ff66d	-0.0012204178
192	0xb6410d87	-2.8767115e-06
193	0x3a3f5020	0.00072980113
194	0x3b02b86f	0.0019946357
195	0xbc39c6cd	-0.011338902
196	0x33c14574	8.999896e-08
197	0x3bf88878	0.0075846277
198	0x3412d948	1.3676356e-07
199	0x3984d430	0.00025335094
200	0xb5747dee	-9.1080335e-07
201	0x3aa90bf7	0.0012897243
202	0xbb000db7	-0.0019539425
203	0xb79b852e	-1.8539457e-05
204	0xb9571a15	-0.00020513714
205	0xb8d7998c	-0.00010280599
206	0xb6f2173e	-7.2148678e-06
207	0xb74ab86d	-1.2083078e-05
208	0xb72d9d32	-1.0348203e-05
209	0xb7685993	-1.3849133e-05
210	0x3aa4003d	0.0012512278
211	0x3a780605	0.0009461346
212	0xb8476cfc	-4.7546797e-05
213	0x3b1617aa	0.0022902288
214	0xbc063ae0	-0.008192748
215	0xbb13397c	-0.0022464683
216	0xb6d204e8	-6.259059e-06
217	0x3b6d2540	0.0036185533
218	0xb7328988	-1.0641648e-05
219	0x3984354f	0.0002521672
220	0xb8918ede	-6.94075e-05
221	0x3ab9c964	0.0014174399
222	0x3ab65e2b	0.0013913562
223	0xb7a5ace9	-1.975005e-05
224	0x389a1038	7.346313e-05
225	0xb8044700	-3.1537376e-05
226	0xb7340df8	-1.0732088e-05
227	0xb70b1a9a	-8.291239e-06
228	0xb81d65d2	-3.7526544e-05
229	0xb95436ec	-0.00020238356
230	0xbb5d899a	-0.003380394
231	0xba64edcd	-0.0008732945
232	0xb8d2ca15	-0.00010051221
233	0x3b22b199	0.0024825095
234	0x3adcd89e	0.0016849225
235	0x3adaaab6	0.0016682956
236	0xb8e69d98	-0.00010996609
237	0x39f3ddd3	0.00046513844
238	0xb543037c	-7.264823e-07
239	0x3aa16973	0.0012314752
240	0xb79e9a48	-1.890691e-05
241	0x38d7c946	0.00010289489
242	0x39b34fb3	0.0003420092
243	0xb70c99f8	-8.380499e-06
244	0xb7c9dc7d	-2.406374e-05
245	0xb7774bae	-1.4739968e-05
246	0xb6b7e13b	-5.4800453e-06
247	0xb612e534	-2.188911e-06
248	0xb6d1e24c	-6.25503e-06
249	0xb6daa0a6	-6.515608e-06
250	0x39ce17c5	0.00039309092
251	0x388e4286	6.7834786e-05
252	0xb84185a6	-4.6139256e-05
253	0x3a0e379d	0.0005425157
254	0x3a884bfc	0.0010398622
255	0x3925e7b3	0.00015821941

bias f4 [20]
0	0x3baf0a09	0.0053417725
1	0xbd8647c2	-0.065566555
2	0x3ce27021	0.027641358
3	0x3ac17a47	0.0014761173
4	0x3cc84854	0.024448551
5	0x3b6a1f2a	0.0035724142
6	0x3b441dd6	0.002992501
7	0x3ab3ef9b	0.0013728024
8	0x3b07fee9	0.0020751304
9	0xbba50a83	-0.0050366535
10	0xbd2a6ef1	-0.04160971
11	0x3bc95586	0.0061442284
12	0x3b4ee325	0.0031568494
13	0x3caee6be	0.02135026
14	0x3c894b12	0.01675943
15	0xbcf264be	-0.029589053
16	0xbb725446	-0.00369765
17	0x3d959ac9	0.073049136
18	0x3b6a30f2	0.003573474
19	0x3e009db3	0.12560157

weight f4 [20, 20]
0	0xbad3d2aa	-0.0016160805
1	0xb966c15d	-0.00022006543
2	0xb9a09216	-0.0003062642
3	0xb87ca16e	-6.0231825e-05
4	0x38d25403	0.00010029229
5	0xb95a30c8	-0.00020808273
6	0xb8732cc5	-5.797741e-05
7	0xbafb1f27	-0.0019159064
8	0xb775562b	-1.46232005e-05
9	0xb84e851c	-4.9238195e-05
10	0x3b4e33dd	0.0031464018
11	0xbbee8ed8	-0.007280212
12	0xbbcfedc9	-0.006345485
13	0x3988426b	0.00025989427
14	0xbbb49bc2	-0.005511732
15	0x3c15e339	0.009148412
16	0xbb915340	-0.004434973
17	0x3b7ef965	0.0038905975
18	0xbc1f24cc	-0.009713363
19	0x37bb7257	2.234538e-05
20	0xbd821eea	-0.06353553
21	0xbb9e1d37	-0.00482526
22	0xbbd6fbf1	-0.0065607955
23	0xba591339	-0.00082807575
24	0xbb9e2979	-0.0048267213
25	0xbb8e6de0	-0.004346594
26	0xb94ec47e	-0.0001971889
27	0xbcf10e05	-0.02942563
28	0xb9089ccf	-0.00013028386
29	0xbad582ae	-0.0016289556
30	0xbd922c33	-0.071373366
31	0xbd864f8f	-0.06558143
32	0xbd396aef	-0.045267995
33	0xbd5b6528	-0.053563267
34	0xbdd4a23f	-0.103825085
35	0xbbad3742	-0.0052861283
36	0xbb5a096b	-0.0033269774
37	0xbd49138f	-0.04909092
38	0xbaac36d0	-0.0013138894
39	0xba9a0e4d	-0.001175353
40	0x3b334de6	0.0027359664
41	0x3a1e4ae4	0.0006038381
42	0x3b15419b	0.00227747
43	0x3a5a0cae	0.00083179295
44	0x3b2ddbbc	0.0026528677
45	0x39d72039	0.00041032003
46	0x396af31c	0.00022406544
47	0x3c9e9039	0.01935588
48	0x38c52e86	9.402358e-05
49	0x3a492eb2	0.00076744996
50	0x3c0a99a8	0.008459486
51	0x3d20cdb4	0.039258674
52	0x3d3cbb6a	0.04607717
53	0x3b7cf3c7	0.003859745
54	0x3ba5003f	0.0050354297
55	0x3a19d5dd	0.0005868355
56	0x38c2b7c3	9.284869e-05
57	0x3bb942b0	0.0056537017
58	0x3a6f5e49	0.0009131176
59	0x36a5c4e0	4.9403025e-06
60	0xb957fb03	-0.00020597507
61	0x39f08415	0.00045874776
62	0x3742aa51	1.1602956e-05
63	0xb8019d86	-3.0902702e-05
64	0x3a898212	0.0010491034
65	0xb9b05b7b	-0.00033637494
66	0xb4a76b73	-3.1184354e-07
67	0x3a93a628	0.0011264728
68	0x35ba9216	1.3900597e-06
69	0x36c85b3e	5.9710865e-06
70	0xb9af8d8e	-0.00033484068
71	0x3b23aebf	0.0024975983
72	0x3a1ad434	0.00059062545
73	0xb9f27f18	-0.0004625253
74	0x3c1ef4a3	0.009701881
75	0xbaacc8fb	-0.0013182455
76	0xb804f42f	-3.1698666e-05
77	0xb907afdc	-0.00012940116
78	0xbc4d46ac	-0.0125290565
79	0xb698fb9d	-4.5592446e-06
80	0xbd07f04f	-0.03318816
81	0xbb3492a8	-0.0027553234
82	0xbb01e7f6	-0.0019822097
83	0xba186a3d	-0.00058141706
84	0xbb021d3d	-0.0019853853
85	0xbb4816ef	-0.0030531248
86	0xb95f52a1	-0.00021297719
87	0xbb306785	-0.0026917171
88	0xb85541b4	-5.0844348e-05
89	0xba5cce84	-0.0008423107
90	0xbc2f58ca	-0.010702321
91	0xbb8fbf96	-0.0043868525
92	0xbd788b7d	-0.0606799
93	0xbcebca2f	-0.028782932
94	0xbd5235dd	-0.0513209
95	0xbb74846e	-0.003731038
96	0xba75367b	-0.00093541265
97	0xbc211b16	-0.009833118
98	0xb9a329e6	-0.00031121
99	0xba1c9d23	-0.0005974343
100	0x3a806cd4	0.0009798058
101	0x3819bd57	3.665438e-05
102	0xb9732c7c	-0.00023190858
103	0x3985116c	0.00025380717
104	0x3b165a15	0.0022941877
105	0xb8459de8	-4.711552e-05
106	0x39445d66	0.0001872681
107	0x3ad3b56d	0.0016152092
108	0x387e951b	6.0697184e-05
109	0x3990af87	0.00027596598
110	0x3bd0714b	0.006361162
111	0x3abe1aed	0.0014503874
112	0x399fbcb9	0.00030467453
113	0xb98b7adb	-0.0002660368
114	0xbac0468a	-0.001466946
115	0xb9a585cf	-0.00031570948
116	0xb88e02f3	-6.771637e-05
117	0x3b8c771d	0.0042866603
118	0x3927f420	0.00016017305
119	0xb827188d	-3.9838767e-05
120	0xb9d1695b	-0.00039942082
121	0xb952ed12	-0.00020115476
122	0xb95619c5	-0.0002041823
123	0xb7b6a79a	-2.1774136e-05
124	0x37d7072a	2.5633333e-05
125	0xb943e4ca	-0.0001868188
126	0xb8198d81	-3.660983e-05
127	0xbac35bc6	-0.001490467
128	0xb4166284	-1.4005678e-07
129	0xb8967dc1	-7.175981e-05
130	0x3a616d1f	0.0008599329
131	0xbb340272	-0.0027467278
132	0xbad715ea	-0.0016409729
133	0xba91c663	-0.0011121746
134	0x3aeed18f	0.0018220412
135	0xb9fef43f	-0.00048628633
136	0x380d050d	3.3621724e-05
137	0xb8792a41	-5.940558e-05
138	0x39776c24	0.00023596041
139	0x361f8dd2	2.3775397e-06
140	0xb9024f2d	-0.00012427261
141	0x36acaf08	5.1463758e-06
142	0xb9970f3a	-0.0002881231
143	0xb620a68e	-2.3938805e-06
144	0x3b0b8d91	0.0021294097
145	0xb81ffa3a	-3.8141596e-05
146	0x37599ed0	1.2971184e-05
147	0x39eeeb9c	0.0004557044
148	0xb82c61e9	-4.109918e-05
149	0xb7345286	-1.074805e-05
150	0x39e3ab4b	0.00043424437
151	0x3a9e204e	0.0012064071
152	0x3a6fe63b	0.00091514335
153	0xb94a1328	-0.00019271357
154	0x3a6f71eb	0.00091341016
155	0xb9162960	-0.00014320528
156	0xb8937d95	-7.032898e-05
157	0x38de9c81	0.00010614936
158	0xba5a8d9c	-0.00083371415
159	0x37b4851e	2.151966e-05
160	0x39592437	0.00020708224
161	0x38c5773c	9.415901e-05
162	0xb9cfdfa2	-0.00039648736
163	0x37baa03b	2.2247541e-05
164	0xba33138a	-0.00068312197
165	0xb7b854b1	-2.1973947e-05
166	0x369cc51a	4.672108e-06
167	0xb81be41d	-3.7167327e-05
168	0xb72ad077	-1.0181327e-05
169	0xb68e661c	-4.243817e-06
170	0xba4ac602	-0.0007735194
171	0xbaf81126	-0.0018926009
172	0x37bc19f5	2.2423434e-05
173	0x3950609a	0.00019872413
174	0xb8ab8721	-8.179085e-05
175	0x392a859e	0.0001626224
176	0xb75ac698	-1.3040051e-05
177	0xb9c40470	-0.0003738734
178	0xb972edef	-0.00023167556
179	0x3711a5f1	8.68131e-06
180	0xbba01d6b	-0.0048863194
181	0xbb4121af	-0.002946954
182	0xbbc89376	-0.0061210943
183	0xbb286d5d	-0.0025699951
184	0xba84ba21	-0.0010126272
185	0xba77ab6a	-0.0009447845
186	0x3ae6b56f	0.0017601679
187	0x3bd04cb4	0.0063568
188	0xba458f2f	-0.00075362896
189	0xbb5e7fb5	-0.003395063
190	0x3b23f136	0.00250156
191	0x3b2b1a51	0.0026108215
192	0x3c5c3a31	0.013441608
193	0xbb46cc59	-0.0030334203
194	0xbca9344c	-0.02065482
195	0x3c7c8d9d	0.015414623
196	0x3c231448	0.009953566
197	0x3b2ddfdd	0.0026531138
198	0x3cc1eb1f	0.023671685
199	0xbb0abbe0	-0.002116911
200	0x3bbf887f	0.005845129
201	0x39f41cdc	0.0004656081
202	0x3940e3ee	0.00018395457
203	0x3904a2e6	0.00012649185
204	0x3993c286	0.00028182956
205	0x39fdea0b	0.00048430296
206	0x3877ed57	5.911043e-05
207	0x3cd05cc2	0.025434855
208	0x37074e3e	8.064844e-06
209	0x38bdd3e3	9.051689e-05
210	0xbce97230	-0.028496832
211	0x3d5e58b3	0.05428381
212	0x3c3feed2	0.011714654
213	0x3ba4f86a	0.005034496
214	0x3c14d0b2	0.00908296
215	0x3a1558b4	0.0005697117
216	0x39fb3ef3	0.00047921352
217	0xbca016c9	-0.019542115
218	0x3a349723	0.0006888976
219	0xb75bc1d8	-1.309855e-05
220	0x3d1044b2	0.035221763
221	0x3b186b84	0.0023257444
222	0x3a8c94eb	0.0010725533
223	0x3992bb2a	0.00027986738
224	0x3b05923b	0.002038135
225	0x3b558636	0.0032581217
226	0x390e3f2a	0.00013565706
227	0x3bbc814b	0.0057527176
228	0x38182f2a	3.628355e-05
229	0x397a1971	0.00023851336
230	0xbb8f6e29	-0.004377146
231	0x3c426704	0.011865381
232	0x3ccbb9d6	0.024868887
233	0x3cf0aba8	0.029378727
234	0x3d687c67	0.056759264
235	0x3b56c648	0.0032771993
236	0x3ad194fb	0.0015989834
237	0xbb3cbff2	-0.0028800932
238	0x3a9c032d	0.0011902802
239	0x384bbd5b	4.8575323e-05
240	0x3a9d89cd	0.0012019217
241	0x39b1868c	0.00033860316
242	0xbc0d9598	-0.008641623
243	0x390ffe8b	0.00013732367
244	0x3c5f45ff	0.013627528
245	0xb710ae0b	-8.623591e-06
246	0x398c7bef	0.0002679522
247	0x3bc53f92	0.006019541
248	0x3774aa77	1.4583223e-05
249	0x34a78498	3.120265e-07
250	0x3ab8482a	0.0014059593
251	0x3c18abf7	0.009318343
252	0x3c6574e2	0.014004918
253	0x3b179abe	0.0023133005
254	0x3aaf1b96	0.0013359662
255	0x3842f7b8	4.648391e-05

bias f4 [20]
0	0xbbf59111	-0.0074941
1	0xba1e63af	-0.00060420757
2	0xb8941470	-7.060997e-05
3	0xba101ba3	-0.0005497282
4	0xba3b7d32	-0.00071521394
5	0xba2df1df	-0.0006635468
6	0xb89415d9	-7.0612594e-05
7	0xbc4b9808	-0.012426384
8	0xb882bba0	-6.233831e-05
9	0xb9a43fb6	-0.00031327986
10	0xbc7e0ad8	-0.015505515
11	0xbcd76d11	-0.026297124
12	0xbd2c666b	-0.04208986
13	0xbbcd7f2b	-0.006271263
14	0xbc43a8a9	-0.011942067
15	0xba5937cb	-0.0008286207
16	0xb9a9c134	-0.0003237814
17	0xbc2d666a	-0.010583499
18	0xb9b3e8e6	-0.00034315063
19	0xb9532f59	-0.00020140166

weight f4 [2, 60]
0	0x3a00ea6a	0.0004917743
1	0x3b6f36d0	0.0036501177
2	0xbac1d324	-0.0014787656
3	0x3c128432	0.008942651
4	0x3ac45a9f	0.001498062
5	0xba67c2bd	-0.0008840969
6	0x39e2b795	0.00043242858
7	0x378ec093	1.7017393e-05
8	0x3e338a61	0.17533256
9	0x370ca4b8	8.383002e-06
10	0xb90119a1	-0.00012311946
11	0x3a215af1	0.0006155214
12	0xb9f78816	-0.00047212903
13	0x39b2ba5d	0.00034089657
14	0x3bd34515	0.006447444
15	0x3e297ecd	0.16552277
16	0x3bd0f10e	0.006376392
17	0x36bc030e	5.603192e-06
18	0xb9f3d367	-0.0004650608
19	0x3ba8b652	0.0051486874
20	0x3c4e8c60	0.01260671
21	0xb9dfc71b	-0.0004268222
22	0x3cbf8529	0.023378925
23	0x38cfe9a7	9.91405e-05
24	0x3d7ceeb9	0.0617511
25	0x3c066fa8	0.008205332
26	0x3bd8de7a	0.006618318
27	0x3b4fdf0d	0.0031718642
28	0x3ab59e88	0.001385645
29	0x385c5e9a	5.2540192e-05
30	0x3a4dba86	0.00078479236
31	0x3d8076a4	0.06272629
32	0xb712380d	-8.7153285e-06
33	0x3cfdb4e4	0.030970044
34	0x3d567468	0.052357107
35	0x3d7c11a3	0.061540257
36	0x3ba0de7d	0.004909335
37	0x3dccbd99	0.099971004
38	0x3c218a41	0.009859622
39	0x3e06e08f	0.131716
40	0xbec18209	-0.3779452
41	0xbcdea2ca	-0.027177233
42	0xbc938508	-0.01800777
43	0xbc2bbba0	-0.010481745
44	0xbcc2d746	-0.023784291
45	0xbd07bf71	-0.033141557
46	0xbb05f756	-0.0020441613
47	0xbec6195f	-0.38691232
48	0xba8e0945	-0.0010836503
49	0xbbea1316	-0.0071433885
50	0xbf306d4c	-0.68916774
51	0xbf518227	-0.8183922
52	0xbf5c52e9	-0.8606401
53	0xbea3036d	-0.3183855
54	0xbf1bcb1d	-0.608568
55	0xbd0e6483	-0.034763824
56	0xbc935940	-0.017986894
57	0xbef592e9	-0.47963646
58	0xbc8ab27c	-0.016930811
59	0xbb851e7d	-0.0040624724
60	0xba00ea19	-0.0004917696
61	0xbb6f36b0	-0.0036501102
62	0x3ac1d30a	0.0014787626
63	0xbc12841b	-0.008942629
64	0xbac45a80	-0.0014980584
65	0x3a67c29a	0.00088409486
66	0xb9e2b766	-0.00043242722
67	0xb78ec09a	-1.7017406e-05
68	0xbe338a64	-0.1753326
69	0xb70ca6ff	-8.383532e-06
70	0x3901196a	0.00012311866
71	0xba215a6f	-0.0006155138
72	0x39f7880c	0.00047212874
73	0xb9b2ba43	-0.00034089581
74	0xbbd344fb	-0.006447432
75	0xbe297ed4	-0.16552287
76	0xbbd0f0f6	-0.006376381
77	0xb6bc0345	-5.6032172e-06
78	0x39f3d365	0.00046506073
79	0xbba8b63f	-0.0051486786
80	0xbc4e8c4e	-0.012606693
81	0x39dfc778	0.0004268249
82	0xbcbf8524	-0.023378916
83	0xb8cfe944	-9.913978e-05
84	0xbd7ceebd	-0.061751116
85	0xbc066f9f	-0.0082053235
86	0xbbd8de6a	-0.0066183107
87	0xbb4fdefd	-0.0031718605
88	0xbab59e7b	-0.0013856435
89	0xb85c6106	-5.2542448e-05
90	0xba4dbaa3	-0.00078479404
91	0xbd8076a7	-0.06272631
92	0x371237f7	8.7153085e-06
93	0xbcfdb4e8	-0.030970052
94	0xbd56746f	-0.052357133
95	0xbd7c11a8	-0.061540276
96	0xbba0de81	-0.004909337
97	0xbdccbd9f	-0.09997105
98	0xbc218a33	-0.009859609
99	0xbe06e094	-0.13171607
100	0x3ec18206	0.37794513
101	0x3cdea2c5	0.027177224
102	0x3c93850a	0.018007774
103	0x3c2bbba4	0.010481749
104	0x3cc2d744	0.023784287
105	0x3d07bf6f	0.03314155
106	0x3b05f759	0.002044162
107	0x3ec6195e	0.3869123
108	0x3a8e094b	0.001083651
109	0x3bea1315	0.007143388
110	0x3f306d4b	0.6891677
111	0x3f518223	0.818392
112	0x3f5c52e8	0.86064005
113	0x3ea3036c	0.31838548
114	0x3f1bcb1c	0.60856795
115	0x3d0e6480	0.034763813
116	0x3c93593d	0.017986888
117	0x3ef592ea	0.4796365
118	0x3c8ab277	0.016930802
119	0x3b851e82	0.0040624747

bias f4 [2]
0	0x3e39596e	0.18100521
1	0xbe395974	-0.1810053

embedding_tensor f4 [2000, 60]
0	0x3bbec7e2	0.0058221677
1	0x00000000	0.0
2	0x00000000	0.0
3	0x3d0010bd	0.031265963
4	0x3bbe5369	0.005808283
5	0x00000000	0.0
6	0x3b546100	0.003240645
7	0x00000000	0.0
8	0x3f7d83cd	0.9902924
9	0x00000000	0.0
10	0x00000000	0.0
11	0x00000000	0.0
12	0x00000000	0.0
13	0x3b5fb78a	0.0034136497
14	0x3cc35199	0.02384262
15	0x3f721d42	0.94575894
16	0x3c88e60b	0.016711256
17	0x00000000	0.0
18	0x00000000	0.0
19	0x3c858e55	0.01630322
20	0x3d2318b9	0.0398185
21	0x00000000	0.0
22	0x3e0e544e	0.13899347
23	0x3b89a6f7	0.004200812
24	0x3ec942f9	0.3930891
25	0x3ce11375	0.027475098
26	0x3cdf6794	0.02727107
27	0x3c3ea6d2	0.011636453
28	0x3c1a6770	0.0094240755
29	0x00000000	0.0
30	0x3e04432d	0.1291625
31	0x3eb977a1	0.36224082
32	0x00000000	0.0
33	0x3e3acf98	0.18243253
34	0x3e9b686a	0.303531
35	0x3ed6acf1	0.4192882
36	0x00000000	0.0
37	0x3f0d8111	0.55275065
38	0x3cc0001d	0.023437554
39	0x3f35daeb	0.7103717
40	0xbe4580ad	-0.19287367
41	0xbc7d7cda	-0.015471661
42	0x3c860fb1	0.016364904
43	0xbbcff79f	-0.0063466574
44	0xbc62d984	-0.013845805
45	0xbca0cb8b	-0.019628307
46	0xb8487d65	-4.78005e-05
47	0xbe59b982	-0.21262172
48	0xba55b798	-0.0008152663
49	0xbaff2d67	-0.0019468487
50	0xbeb7212c	-0.35767496
51	0xbee01d2a	-0.4377225
52	0xbf103ca4	-0.5634253
53	0xbe1d4195	-0.15357049
54	0xbe9e2691	-0.308888
55	0xbc909cd8	-0.017652914
56	0xbc03af8b	-0.008037458
57	0xbe7d8090	-0.24756074
58	0xbb72fda2	-0.0037077446
59	0xbb09d643	-0.002103225
60	0x3bbec7e2	0.0058221677
61	0x00000000	0.0
62	0x00000000	0.0
63	0x3d0010bd	0.031265963
64	0x3bbe5369	0.005808283
65	0x00000000	0.0
66	0x3b546100	0.003240645
67	0x00000000	0.0
68	0x3f7d97a4	0.9905951
69	0x00000000	0.0
70	0x00000000	0.0
71	0x00000000	0.0
72	0x00000000	0.0
73	0x3b5fb78a	0.0034136497
74	0x3cc35199	0.02384262
75	0x3f721d42	0.94575894
76	0x3c88e60b	0.016711256
77	0x00000000	0.0
78	0x00000000	0.0
79	0x3c858e55	0.01630322
80	0x3d230fde	0.039810054
81	0x3e827cc2	0.25485808
82	0x3e0f4ce2	0.13994172
83	0x3b8877f8	0.004164692
84	0x3ec94752	0.39312226
85	0x3ce1083a	0.027469743
86	0x3cdc4ecd	0.026893044
87	0x3c3e8b96	0.01162996
88	0x3c1a510d	0.009418738
89	0x00000000	0.0
90	0x3e24d5c3	0.16097169
91	0x3eb9847b	0.36233887
92	0x00000000	0.0
93	0x3e368624	0.17824608
94	0x3e94ed81	0.2908745
95	0x3edf8e4a	0.43663245
96	0x00000000	0.0
97	0x3f10654c	0.56404567
98	0x3cbf2368	0.023332313
99	0x3f35daeb	0.7103717
100	0x3ee1b4e7	0.4408333
101	0x3c0b34b6	0.008496454
102	0x3de4bcb6	0.11168806
103	0x3b540241	0.0032349976
104	0xbc4c2ebb	-0.012462313
105	0x3ce974dc	0.028498106
106	0x3c20c5fe	0.00981283
107	0x3ec9a544	0.393839
108	0xb9ff285e	-0.00048667466
109	0x3c017b42	0.007902922
110	0x3f42bf3a	0.7607304
111	0x3f5fbe1a	0.87399447
112	0x3f674eea	0.9035479
113	0x3ebc9824	0.36834824
114	0x3f3deba0	0.7418766
115	0x3cddffd5	0.02709953
116	0x3d44cbec	0.048046038
117	0x3f0d9d81	0.55318457
118	0x3d35b431	0.044361297
119	0xbb03d38d	-0.0020115108
120	0x3bbec7e2	0.0058221677
121	0x00000000	0.0
122	0x00000000	0.0
123	0x3d0010bd	0.031265963
124	0x3bbe5369	0.005808283
125	0x00000000	0.0
126	0x3b546100	0.003240645
127	0x00000000	0.0
128	0x3f7d91bf	0.99050516
129	0x00000000	0.0
130	0x00000000	0.0
131	0x00000000	0.0
132	0x00000000	0.0
133	0x3b5fb78a	0.0034136497
134	0x3cc35199	0.02384262
135	0x3f721d42	0.94575894
136	0x3c88e60b	0.016711256
137	0x00000000	0.0
138	0x00000000	0.0
139	0x3c858e55	0.01630322
140	0x3d224cd7	0.03962406
141	0x00000000	0.0
142	0x3e0e544e	0.13899347
143	0x3b891574	0.0041834656
144	0x3ec4d6c4	0.38445103
145	0x3cdef29a	0.02721529
146	0x3cddcd6a	0.027075488
147	0x3c3ee8f1	0.011652217
148	0x3c18ec25	0.009333645
149	0x00000000	0.0
150	0x3e0439b9	0.12912644
151	0x3eb4dc23	0.353242
152	0x00000000	0.0
153	0x3e1a2f64	0.1505714
154	0x3e91c374	0.2846943
155	0x3ed66d98	0.41880488
156	0x00000000	0.0
157	0x3f0e1004	0.5549319
158	0x3cbfc44f	0.023409037
159	0x3f35daeb	0.7103717
160	0xbe45864c	-0.19289511
161	0xbc7d5b21	-0.015463621
162	0x3c87075e	0.016483005
163	0xbbd05f44	-0.006359013
164	0xbc61359a	-0.01374569
165	0xbca0d0e1	-0.019630851
166	0xb810e679	-3.454692e-05
167	0xbe5903e4	-0.2119289
168	0xba5ac652	-0.0008345592
169	0xbafc8b76	-0.0019267637
170	0xbeb7212c	-0.35767496
171	0xbede63bc	-0.43435466
172	0xbf103879	-0.5633617
173	0xbe1dcd88	-0.15410435
174	0xbe9e2d09	-0.30893734
175	0xbc918f36	-0.017768484
176	0xbc03afb2	-0.0080374945
177	0xbe7d8090	-0.24756074
178	0xbb7c00d4	-0.0038452642
179	0xbb212034	-0.0024585845
180	0x3bbec7e2	0.0058221677
181	0x00000000	0.0
182	0x00000000	0.0
183	0x3d0010bd	0.031265963
184	0x3bbe5369	0.005808283
185	0x00000000	0.0
186	0x3b546100	0.003240645
187	0x00000000	0.0
188	0x3f7d91bf	0.99050516
189	0x00000000	0.0
190	0x00000000	0.0
191	0x00000000	0.0
192	0x00000000	0.0
193	0x3b5fb78a	0.0034136497
194	0x3cc35199	0.02384262
195	0x3f721d42	0.94575894
196	0x3c88e60b	0.016711256
197	0x00000000	0.0
198	0x00000000	0.0
199	0x3c858e55	0.01630322
200	0x3d224cd7	0.03962406
201	0x00000000	0.0
202	0x3e0f4ce2	0.13994172
203	0x3b89a6f7	0.004200812
204	0x3ec4d6c4	0.38445103
205	0x3cdef29a	0.02721529
206	0x3cdf6794	0.02727107
207	0x3c3ee8f1	0.011652217
208	0x3c18ec25	0.009333645
209	0x00000000	0.0
210	0x3e04432d	0.1291625
211	0x3eb4dc23	0.353242
212	0x00000000	0.0
213	0x3e32112c	0.17389363
214	0x3e93cbe7	0.28866503
215	0x3edd77b5	0.43255392
216	0x00000000	0.0
217	0x3f10654c	0.56404567
218	0x3cc0001d	0.023437554
219	0x3f35daeb	0.7103717
220	0xbe4242fb	-0.18970864
221	0xbc7d5b21	-0.015463621
222	0x3c84f9b1	0.016232343
223	0xbbd036c8	-0.0063541867
224	0xbc61359a	-0.01374569
225	0xbca0f8c2	-0.019649867
226	0xb81bbc97	-3.7130518e-05
227	0xbe59b982	-0.21262172
228	0xba59fc64	-0.0008315502
229	0xbb00b80b	-0.0019640948
230	0xbeb7212c	-0.35767496
231	0xbee1359b	-0.4398621
232	0xbf0d8ead	-0.5529583
233	0xbe1dcd88	-0.15410435
234	0xbe9add2b	-0.30246863
235	0xbc918f36	-0.017768484
236	0xbc03af8b	-0.008037458
237	0xbe7d8090	-0.24756074
238	0xbb7b3a03	-0.0038334138
239	0xbb0a7776	-0.0021128333
240	0x3bbec7e2	0.0058221677
241	0x00000000	0.0
242	0x00000000	0.0
243	0x3d0010bd	0.031265963
244	0x3bbe5369	0.005808283
245	0x00000000	0.0
246	0x3b546100	0.003240645
247	0x00000000	0.0
248	0x3f7d9432	0.99054253
249	0x00000000	0.0
250	0x00000000	0.0
251	0x00000000	0.0
252	0x00000000	0.0
253	0x3b5fb78a	0.0034136497
254	0x3cc35199	0.02384262
255	0x3f721d42	0.94575894
